model_save/vit_model_0404.pt (torch, 31467 bytes, 46 tensors)

class_token f4 [1, 8]
0	0x3f0aa463	0.54157084
1	0x3f0a9553	0.541341
2	0x3f6c2984	0.9225085
3	0x3f55594f	0.833394
4	0x3f88854c	1.0665679
5	0x3f262277	0.6489634
6	0x3f232e9f	0.63743013
7	0x3ed54ea7	0.4166157

positional_embeddings f4 [50, 8]
0	0x00000000	0.0
1	0x3f800000	1.0
2	0x00000000	0.0
3	0x3f800000	1.0
4	0x00000000	0.0
5	0x3f800000	1.0
6	0x00000000	0.0
7	0x3f800000	1.0
8	0x3f576aa4	0.84147096
9	0x3f0a5140	0.5403023
10	0x3dcc7576	0.099833414
11	0x3f7eb898	0.9950042
12	0x3c23d657	0.009999833
13	0x3f7ffcb9	0.99995
14	0x3a83126d	0.0009999998
15	0x3f7ffff8	0.9999995
16	0x3f68c7b7	0.9092974
17	0xbed51133	-0.41614684
18	0x3e4b6ff9	0.19866933
19	0x3f7ae5a5	0.9800666
20	0x3ca3d43e	0.019998666
21	0x3f7ff2e5	0.9998
22	0x3b031269	0.0019999987
23	0x3f7fffde	0.999998
24	0x3e1081c3	0.14112
25	0xbf7d7026	-0.9899925
26	0x3e974e6d	0.29552022
27	0x3f7490ef	0.9553365
28	0x3cf5b920	0.029995501
29	0x3f7fe283	0.99955004
30	0x3b449b93	0.0029999956
31	0x3f7fffb5	0.9999955
32	0xbf41bdcf	-0.7568025
33	0xbf275530	-0.6536436
34	0x3ec761d7	0.38941833
35	0x3f6bcaa7	0.921061
36	0x3d23cbdb	0.039989334
37	0x3f7fcb94	0.9992001
38	0x3b831258	0.0039999895
39	0x3f7fff7a	0.999992
40	0xbf757c10	-0.9589243
41	0x3e913c2c	0.2836622
42	0x3ef57744	0.47942555
43	0x3f60a940	0.87758255
44	0x3d4cb6f5	0.04997917
45	0x3f7fae19	0.99875027
46	0x3ba3d6de	0.0049999794
47	0x3f7fff2e	0.9999875
48	0xbe8f0f8c	-0.2794155
49	0x3f75cdb8	0.96017027
50	0x3f108c69	0.5646425
51	0x3f534932	0.8253356
52	0x3d759cd1	0.059964005
53	0x3f7f8a12	0.99820054
54	0x3bc49b59	0.005999964
55	0x3f7ffed2	0.999982
56	0x3f283046	0.6569866
57	0x3f40ffbd	0.75390226
58	0x3f24eb73	0.64421767
59	0x3f43ccb3	0.7648422
60	0x3d8f3e32	0.06994285
61	0x3f7f5f81	0.997551
62	0x3be55fc7	0.006999943
63	0x3f7ffe65	0.9999755
64	0x3f7d4695	0.98935825
65	0xbe14fdf6	-0.14550003
66	0x3f37a4a6	0.7173561
67	0x3f325b5f	0.6967067
68	0x3da3aa51	0.0799147
69	0x3f7f2e66	0.99680173
70	0x3c031213	0.007999915
71	0x3f7ffde7	0.999968
72	0x3ed30132	0.4121185
73	0xbf693fd5	-0.91113025
74	0x3f48881d	0.7833269
75	0x3f1f21d5	0.62161
76	0x3db8123f	0.08987855
77	0x3f7ef6c2	0.9959527
78	0x3c13743a	0.008999879
79	0x3f7ffd59	0.9999595
80	0xbf0b44f8	-0.5440211
81	0xbf56cd64	-0.8390715
82	0x3f576aa4	0.84147096
83	0x3f0a5140	0.5403023
84	0x3dcc7576	0.099833414
85	0x3f7eb898	0.9950042
86	0x3c23d657	0.009999833
87	0x3f7ffcb9	0.99995
88	0xbf7fff5c	-0.9999902
89	0x3b910572	0.004425698
90	0x3f64262a	0.89120734
91	0x3ee83dc0	0.45359612
92	0x3de0d372	0.1097783
93	0x3f7e73e8	0.9939561
94	0x3c34386a	0.010999778
95	0x3f7ffc09	0.9999395
96	0xbf095cd8	-0.53657293
97	0x3f5806d0	0.84385395
98	0x3f6e9a1d	0.9320391
99	0x3eb986f5	0.36235777
100	0x3df52bac	0.119712204
101	0x3f7e28b5	0.99280864
102	0x3c449a71	0.011999712
103	0x3f7ffb48	0.999928
104	0x3ed72022	0.42016703
105	0x3f684e6f	0.9074468
106	0x3f76abc0	0.9635582
107	0x3e88f59b	0.26749882
108	0x3e04bed0	0.12963414
109	0x3f7dd700	0.9915619
110	0x3c54fc6b	0.012999634
111	0x3f7ffa76	0.9999155
112	0x3f7d9872	0.9906074
113	0x3e0c04d7	0.13673721
114	0x3f7c466f	0.98544973
115	0x3e2e0bde	0.16996714
116	0x3e0ee464	0.13954312
117	0x3f7d7ecc	0.990216
118	0x3c655e56	0.013999542
119	0x3f7ff994	0.999902
120	0x3f267944	0.65028787
121	0xbf427ae8	-0.7596879
122	0x3f7f5bd5	0.997495
123	0x3d90deaa	0.0707372
124	0x3e19064f	0.14943813
125	0x3f7d201a	0.9887711
126	0x3c75c033	0.014999437
127	0x3f7ff8a1	0.9998875
128	0xbe936810	-0.2879033
129	0xbf75292c	-0.9576595
130	0x3f7fe40e	0.9995736
131	0xbcef33d6	-0.029199522
132	0x3e232450	0.15931821
133	0x3f7cbaed	0.98722726
134	0x3c831100	0.015999317
135	0x3f7ff79d	0.999872
136	0xbf761e25	-0.96139747
137	0xbe8ce236	-0.27516335
138	0x3f7dddbf	0.9916648
139	0xbe03efd0	-0.1288445
140	0x3e2d3e23	0.16918235
141	0x3f7c4f49	0.9855848
142	0x3c8b41de	0.016999181
143	0x3f7ff688	0.9998555
144	0xbf4040b3	-0.75098723
145	0x3f290a84	0.6603167
146	0x3f794e14	0.9738476
147	0xbe68a7aa	-0.22720209
148	0x3e375387	0.17902957
149	0x3f7bdd2e	0.9838437
150	0x3c9372b3	0.017999029
151	0x3f7ff562	0.999838
152	0x3e197969	0.1498772
153	0x3f7d1bbf	0.9887046
154	0x3f7240b9	0.9463001
155	0xbea58636	-0.32328957
156	0x3e41643a	0.1888589
157	0x3f7b64a1	0.9820042
158	0x3c9ba37e	0.018998858
159	0x3f7ff42c	0.9998195
160	0x3f69b6c8	0.9129453
161	0x3ed0f022	0.40808207
162	0x3f68c7b7	0.9092974
163	0xbed51133	-0.41614684
164	0x3e4b6ff9	0.19866933
165	0x3f7ae5a5	0.9800666
166	0x3ca3d43e	0.019998666
167	0x3f7ff2e5	0.9998
168	0x3f562f10	0.8366556
169	0xbf0c37fc	-0.54772925
170	0x3f5cfb4a	0.86320937
171	0xbf013d98	-0.5048461
172	0x3e557683	0.2084599
173	0x3f7a603c	0.9780309
174	0x3cac04f5	0.020998457
175	0x3f7ff18d	0.9997795
176	0xbc110515	-0.008851309
177	0xbf7ffd6f	-0.99996084
178	0x3f4ef99f	0.8084964
179	0xbf16a802	-0.5885011
180	0x3e5f7796	0.21822962
181	0x3f79d46a	0.97589743
182	0x3cb4359f	0.021998225
183	0x3f7ff024	0.999758
184	0xbf58a1e7	-0.84622043
185	0xbf0867bf	-0.53283304
186	0x3f3ee689	0.7457052
187	0xbf2a9111	-0.66627604
188	0x3e6972f1	0.22797753
189	0x3f794233	0.97366637
190	0x3cbc663e	0.022997972
191	0x3f7feeab	0.99973553
192	0xbf67d3fc	-0.9055784
193	0x3ed92dfe	0.42417902
194	0x3f2ceb28	0.6754632
195	0xbf3cc5d6	-0.73739374
196	0x3e736851	0.23770262
197	0x3f78a99b	0.971338
198	0x3cc496d1	0.023997696
199	0x3f7fed20	0.999712
200	0xbe078738	-0.13235176
201	0x3f7dbf78	0.99120283
202	0x3f193578	0.5984721
203	0xbf4d17bf	-0.8011436
204	0x3e7d5777	0.24740396
205	0x3f780aa5	0.9689124
206	0x3cccc757	0.024997396
207	0x3f7feb85	0.9996875
208	0x3f433708	0.76255846
209	0x3f259c81	0.6469193
210	0x3f03f7e6	0.5155014
211	0xbf5b5d10	-0.8568888
212	0x3e83a010	0.25708055
213	0x3f776555	0.96638995
214	0x3cd4f7cf	0.02599707
215	0x3f7fe9da	0.99966204
216	0x3f74d50e	0.95637596
217	0xbe959338	-0.29213881
218	0x3edad189	0.42737988
219	0xbf677146	-0.90407217
220	0x3e889106	0.26673144
221	0x3f76b9b1	0.9637709
222	0x3cdd2839	0.026996719
223	0x3f7fe81d	0.9996355
224	0x3e8ab42a	0.2709058
225	0xbf766d57	-0.9626059
226	0x3eab8391	0.33498815
227	0xbf71357c	-0.94222236
228	0x3e8d7e7d	0.27635565
229	0x3f7607bb	0.96105546
230	0x3ce55895	0.02799634
231	0x3f7fe650	0.99960804
232	0xbf29e3e9	-0.6636339
233	0xbf3f80b3	-0.74805754
234	0x3e74fdc7	0.23924933
235	0xbf7890b7	-0.9709582
236	0x3e926854	0.2859522
237	0x3f754f78	0.95824385
238	0x3ced88e2	0.028995935
239	0x3f7fe472	0.99957955
240	0xbf7cefa4	-0.9880316
241	0x3e1df418	0.15425146
242	0x3e1081c3	0.14112
243	0xbf7d7026	-0.9899925
244	0x3e974e6d	0.29552022
245	0x3f7490ef	0.9553365
246	0x3cf5b920	0.029995501
247	0x3f7fe283	0.99955004
248	0xbecede06	-0.40403765
249	0x3f6a2c8e	0.91474235
250	0x3d2a507c	0.041580662
251	0xbf7fc752	-0.99913514
252	0x3e9c30a5	0.30505863
253	0x3f73cc22	0.95233357
254	0x3cfde94d	0.030995036
255	0x3f7fe083	0.9995195

weight f4 [8, 16]
0	0x3e400243	0.18750863
1	0x3d959af5	0.07304946
2	0xbd67acb4	-0.056561187
3	0xbeaf1cd4	-0.34201682
4	0x3e360b70	0.177778
5	0xbd3a44e1	-0.045475844
6	0xbe98c9b1	-0.29841378
7	0xbe2e2ae0	-0.17008543
8	0x3e53aa4b	0.2067043
9	0xbe2993a0	-0.1656022
10	0xbc970bf6	-0.01843832
11	0xbe28ce82	-0.16485026
12	0xbd9db857	-0.07701176
13	0xbe7986c6	-0.24367818
14	0xbe8b0a07	-0.27156088
15	0xbe836a81	-0.25667194
16	0xbe4c4879	-0.19949521
17	0xbc2dc66e	-0.010606391
18	0xbe72ef26	-0.2372404
19	0xbcb2c32d	-0.021821583
20	0x3c115c86	0.008872157
21	0x3de04c79	0.10952086
22	0xbd889a92	-0.06670107
23	0x3e49aab3	0.19694023
24	0x3b17810e	0.0023117694
25	0x3bc6ac3a	0.0060630115
26	0xbde94d33	-0.11391678
27	0x3d335c90	0.043789446
28	0xbe1b7474	-0.15181142
29	0xbd102deb	-0.03520004
30	0xbe0c8c31	-0.13725354
31	0x3d404765	0.046943087
32	0xbddb9885	-0.1072245
33	0x3db992b1	0.09061182
34	0x3dddfb0e	0.108389005
35	0xbe5ae43a	-0.21376124
36	0x3d390240	0.04516816
37	0x3e876731	0.26445916
38	0x3e8b49bd	0.27204695
39	0x3dfc7517	0.123270206
40	0x3d830f79	0.063994355
41	0x3d43d786	0.04781296
42	0x3cf8c1c8	0.03036584
43	0xbd302c5e	-0.04301106
44	0x3e030814	0.1279605
45	0x3dc0c58b	0.09412678
46	0x3dfaddb4	0.12249318
47	0x3e7c7195	0.24652703
48	0x3def3945	0.11680845
49	0x3e855e64	0.26048577
50	0x3ea09079	0.31360224
51	0x3e1507cc	0.14553756
52	0xbdcf4b88	-0.10121828
53	0x3e4333e3	0.19062762
54	0x3de206d2	0.11036457
55	0x3d37bc2d	0.044857193
56	0xbd4cde7f	-0.050016876
57	0x3d836009	0.064148016
58	0x3ddb0488	0.10694224
59	0xbbca594b	-0.0061751953
60	0xbe4ccbf7	-0.19999681
61	0xbd819a0b	-0.063282095
62	0xbe2d9ba6	-0.16953906
63	0xbde51149	-0.111849375
64	0xbe9dfdb2	-0.30857617
65	0x3dd074c3	0.101785205
66	0x3e977621	0.29582313
67	0x3e3fdb63	0.18736033
68	0x3ddf9efe	0.10918997
69	0x3ee0941a	0.43862993
70	0x3ed02a06	0.4065706
71	0xbe77d9d6	-0.24204192
72	0xbdbb6096	-0.09149282
73	0x3e17314b	0.14764898
74	0x3e511600	0.20418549
75	0xbe4fc154	-0.20288593
76	0x3e932cb8	0.28745055
77	0x3e708d80	0.23491478
78	0x3ea23fa1	0.3168917
79	0xbe12c198	-0.14331663
80	0x3d02ed01	0.031964306
81	0xbd968ecb	-0.07351454
82	0xbef32c30	-0.4749465
83	0xbf16186a	-0.58631
84	0x3e50cb33	0.20390014
85	0x3e66cadd	0.22538324
86	0xbe8fffac	-0.2812475
87	0xbd232cb5	-0.039837558
88	0x3e515327	0.20441876
89	0xbc558a89	-0.013033518
90	0xbdce6f7d	-0.100798585
91	0xbc928695	-0.01788644
92	0x3e6cf503	0.2314034
93	0xbdbb0b94	-0.09133068
94	0xbeab94c8	-0.3351195
95	0x3e7a4827	0.24441586
96	0xbe2388c1	-0.15970136
97	0x3e8ff905	0.28119674
98	0x3e2ee593	0.17079763
99	0xbe9f42e4	-0.3110572
100	0xbe9f27fa	-0.31085187
101	0xbd58b93d	-0.052911032
102	0xbe1527f9	-0.1456603
103	0xbe6ccb51	-0.23124434
104	0xbde75a34	-0.11296502
105	0x3e008eca	0.1255447
106	0xbcff64b1	-0.031175943
107	0xbbd8f442	-0.0066209147
108	0xbeb08e3e	-0.34483522
109	0xbd63d200	-0.055620193
110	0xbeccface	-0.400351
111	0xbee190b8	-0.44055724
112	0xbee14f9c	-0.4400605
113	0xbe3485d6	-0.1762918
114	0xbed0df7e	-0.4079551
115	0x3eb9280a	0.3616336
116	0xbdf6f9ad	-0.120593406
117	0xbe8bbfcb	-0.27294764
118	0x3dd5bdf0	0.10436618
119	0x3f1977bc	0.59948325
120	0xbddeeaee	-0.10884653
121	0xbe125256	-0.14289221
122	0x3c501909	0.012701281
123	0x3e443761	0.1916175
124	0xbedce814	-0.43145812
125	0xbe30a1f7	-0.17249285
126	0x3e2e1dad	0.17003508
127	0x3ecd17f0	0.40057325

bias f4 [8]
0	0xbe17d304	-0.1482659
1	0xbe4bef55	-0.19915517
2	0x3ab46034	0.0013761581
3	0x3e862e2f	0.2620711
4	0xbe0e137e	-0.13874623
5	0x3d13d9c3	0.036096346
6	0x3e197d1b	0.1498913
7	0xbecc137c	-0.39858615

weight f4 [8]
0	0x3f56ca80	0.8390274
1	0x3f827149	1.0190822
2	0x3f8b84a0	1.0899849
3	0x3f8fe3a9	1.1241351
4	0x3f914006	1.1347663
5	0x3f83f7df	1.0310019
6	0x3fa72c81	1.3060457
7	0x3f73c302	0.95219433

bias f4 [8]
0	0xbda437ae	-0.080184326
1	0x3ca847b6	0.020542007
2	0xbdbf1c2a	-0.09331544
3	0x3ee241a4	0.44190705
4	0xbd7b5c22	-0.06136716
5	0xbe89a465	-0.26883236
6	0x3e28687e	0.1644611
7	0xbe109d4e	-0.14122507

weight f4 [4, 4]
0	0xbf667422	-0.90020955
1	0x3ebecb91	0.37264684
2	0xbe064740	-0.13113117
3	0x3e5791e9	0.21051754
4	0xbe5c4593	-0.21510915
5	0xbf2b10c0	-0.66822433
6	0xbed42c43	-0.4144002
7	0xbe285042	-0.16436866
8	0xbeb2a492	-0.34891182
9	0x3e6ea08c	0.23303431
10	0x3f0209c2	0.5079614
11	0xbebdcc91	-0.37070134
12	0x3e9d6c45	0.30746666
13	0xbf13a2ad	-0.576701
14	0x3ecb7e47	0.3974478
15	0xbe6bdfd0	-0.23034596

bias f4 [4]
0	0x3e903b92	0.2817045
1	0xbd010c5e	-0.031505935
2	0xbde467cc	-0.1115261
3	0xbeaf01d7	-0.3418109

weight f4 [4, 4]
0	0xbef0299c	-0.46906745
1	0xbd7d030a	-0.061770476
2	0xbee5c0a8	-0.44873548
3	0x3e085ea8	0.13317358
4	0xbf8e1a67	-1.1101807
5	0x3ee111e0	0.4395895
6	0x3eaee1c7	0.3415663
7	0x3ee35733	0.44402465
8	0x3f70eb4d	0.9410904
9	0xbc9a245c	-0.018816166
10	0xbf1f3ab0	-0.62198925
11	0xbdad7ac8	-0.08470684
12	0xbb5f0c3d	-0.0034034394
13	0xbf01101b	-0.504152
14	0x3fb7582c	1.4323783
15	0xbedf60bd	-0.43628493

bias f4 [4]
0	0xbc833cec	-0.01602026
1	0x3e504608	0.20339215
2	0x3ee1dd42	0.4411412
3	0xbf0c2fbd	-0.5476034

weight f4 [4, 4]
0	0xbcfbd709	-0.030742185
1	0x3ebc7ece	0.36815494
2	0x3d1ac333	0.037783813
3	0xbf639048	-0.8889203
4	0xbe832ef8	-0.25621772
5	0x3e1cb023	0.15301566
6	0x3e7cd54a	0.24690738
7	0x3ee0e0ec	0.43921602
8	0xbe9904de	-0.29886526
9	0xbe51a8c5	-0.20474537
10	0xbf0e7774	-0.5565102
11	0xbdeebf76	-0.11657612
12	0xbdfc1a55	-0.1230971
13	0xbdb560f3	-0.08856382
14	0xbeb5f68a	-0.35539657
15	0x3f3ea3d4	0.7446873

bias f4 [4]
0	0x3e3e06a3	0.18557219
1	0x3ea79011	0.327271
2	0xbea7164c	-0.326342
3	0xbf10b176	-0.56520784

weight f4 [4, 4]
0	0x3d43b5b6	0.047780715
1	0x3f35b07d	0.70972425
2	0xbebffec5	-0.3749906
3	0x3ed2e56a	0.41190654
4	0xbec1810a	-0.37793761
5	0x3f195df3	0.5990898
6	0xbf0a8bb5	-0.54119426
7	0xbef0f870	-0.47064543
8	0x3ed07597	0.40714714
9	0x3e8543fc	0.2602843
10	0x3bc7d5da	0.006098491
11	0x3e600026	0.21875057
12	0xbf0f4b60	-0.5597439
13	0xbf55268c	-0.8326194
14	0x3ee04471	0.43802217
15	0xbf142e33	-0.57882994

bias f4 [4]
0	0xbe0587b3	-0.13040046
1	0x3f25b9b7	0.64736503
2	0xbd51ba75	-0.05120321
3	0x3e8a1afe	0.26973718

weight f4 [4, 4]
0	0xbf5d5463	-0.8645689
1	0x3eac377f	0.3363609
2	0xbf928764	-1.1447568
3	0xbd966b05	-0.07344631
4	0xbec26ad9	-0.37972143
5	0x3e67c9ca	0.2263557
6	0xbe17cb69	-0.14823689
7	0x3f19a73b	0.600208
8	0x3ed0f3fe	0.4081115
9	0x3f29df30	0.6635618
10	0xbf00c1bc	-0.50295615
11	0xbecc9b1d	-0.39962092
12	0x3e1f7d0c	0.15575045
13	0xbf1cca27	-0.6124596
14	0xbf4d3c7d	-0.8017042
15	0x3e8ddf0a	0.27709228

bias f4 [4]
0	0x3e89fa11	0.26948598
1	0x3ef0ba8b	0.4701732
2	0xbe90f11c	-0.28308952
3	0xbcceb09c	-0.025230698

weight f4 [4, 4]
0	0x3eba06df	0.36333367
1	0xbe9da20e	-0.307877
2	0x3e231899	0.15927352
3	0xbf036605	-0.51327544
4	0xbe83e2ca	-0.25758964
5	0xbef0272a	-0.4690488
6	0x3b4ef5f5	0.0031579707
7	0x3cbbfae1	0.022946777
8	0x3ecf3463	0.40469655
9	0x3da1249d	0.078683116
10	0xbf03d1c2	-0.5149194
11	0xbe13fdcb	-0.14452283
12	0xbf5b5fce	-0.8569306
13	0x3d056235	0.03256436
14	0x3dfb4740	0.12269449
15	0xbec0667f	-0.37578198

bias f4 [4]
0	0xbe9caad6	-0.30599087
1	0xbba4001d	-0.0050048963
2	0x3e919109	0.28430966
3	0x3e527234	0.20551378

weight f4 [8]
0	0x3f930a2d	1.148748
1	0x3f807fd5	1.0039011
2	0x3f847e8c	1.0351119
3	0x3f8c4e9a	1.0961487
4	0x3f60190b	0.8753821
5	0x3f64d32b	0.89384717
6	0x3f86abfa	1.0521233
7	0x3f828a64	1.0198483

bias f4 [8]
0	0x3d34e894	0.044167116
1	0xbe592c9f	-0.21208428
2	0x3db9a35b	0.09064361
3	0xbe7044b0	-0.23463702
4	0x3e96f10e	0.29480785
5	0xbe82c6bd	-0.2554225
6	0x3d136f6b	0.03599493
7	0xbedf799c	-0.43647468

weight f4 [32, 8]
0	0x3dc93513	0.09824576
1	0xbfba3991	-1.4548818
2	0x3e65737f	0.2240734
3	0xbd9881e1	-0.074466474
4	0x3f6334c2	0.8875238
5	0xbd279c1a	-0.040920354
6	0xbf140c1b	-0.5783097
7	0x3ebc759e	0.36808485
8	0xbf6864c3	-0.9077875
9	0x3db3638f	0.08759224
10	0xbd0e225b	-0.034700733
11	0xbe209aa4	-0.1568399
12	0x3eb166e3	0.3464881
13	0xbe9f9396	-0.31167287
14	0x3e346fea	0.17620817
15	0xbdd6bdfa	-0.10485454
16	0x3db710e4	0.089387685
17	0xbe8f7c9d	-0.2802476
18	0xbe56ae39	-0.20964898
19	0x3ecef1ea	0.4041894
20	0xbd1f5be1	-0.038905982
21	0x3f406ec0	0.7516899
22	0xbf0e6865	-0.55628043
23	0x3db80055	0.08984438
24	0xbe11fce1	-0.14256622
25	0xbf722972	-0.9459449
26	0xbf4de91c	-0.8043382
27	0xbe010d07	-0.12602626
28	0x3e5e0ca6	0.21684512
29	0x3ed1eab9	0.40999392
30	0x3e9fc64f	0.31205985
31	0x3f843728	1.0329332
32	0x3e9910dc	0.29895675
33	0xbfa83f21	-1.3144265
34	0x3ed03b4d	0.40670243
35	0x3f1a3b09	0.6024633
36	0xbe91c3ab	-0.28469595
37	0x3e6c9998	0.23105466
38	0x3de9539b	0.113928996
39	0x3ea12958	0.31476855
40	0xbde13494	-0.109963566
41	0x3e135254	0.14386874
42	0xbd0194f6	-0.0316362
43	0x3f16c268	0.5889039
44	0xbe11825d	-0.14209886
45	0x3d88a5fd	0.06672285
46	0xbf0427d1	-0.51623255
47	0x3d15dad2	0.036585636
48	0x3f074884	0.52845025
49	0xbf67cd87	-0.90547985
50	0xbd6e2a52	-0.05814583
51	0x3f67e84d	0.9058884
52	0xbdab218f	-0.0835601
53	0xbef18c1f	-0.47177216
54	0xbe31407d	-0.17309757
55	0x3ef4f0e7	0.47840044
56	0xbe82254d	-0.25419083
57	0xbcaa13bf	-0.020761369
58	0xbe8324e2	-0.25614077
59	0xbf06d1e1	-0.52664
60	0x3ec54796	0.38531178
61	0x3e8ba2f9	0.27272776
62	0x3eaa8b38	0.3330934
63	0x3f32a9c8	0.69790316
64	0x3e917913	0.28412685
65	0x3dcf96b6	0.10136168
66	0xbf27ca28	-0.6554284
67	0xbf1da562	-0.6158048
68	0x3f81f7d2	1.0153754
69	0x3ea589ca	0.32331687
70	0xbec588a7	-0.3858082
71	0x394f048d	0.00019742754
72	0x3f1a4f4e	0.6027726
73	0x3e56cc66	0.2097641
74	0x3ea9e3af	0.3318152
75	0x3ed1246f	0.4084811
76	0xbed2a86e	-0.41144127
77	0x3eb53f02	0.35399634
78	0x3e88ec16	0.2674262
79	0x3f027a3e	0.50967777
80	0x3ded20af	0.115784995
81	0x3ee706ac	0.45122278
82	0x3d8d20e0	0.06891036
83	0x3e96c9e8	0.29450917
84	0xbe299e13	-0.16564207
85	0xbd9a3f74	-0.07531634
86	0xbf6157e1	-0.8802472
87	0x3e41f4a4	0.18940979
88	0x3eb3cac6	0.3511564
89	0xbeb785f0	-0.35844374
90	0xbe6450c1	-0.2229643
91	0x3edea246	0.4348318
92	0x3d85641d	0.06513236
93	0x3f3b5965	0.7318328
94	0xbd88b7ff	-0.066757195
95	0xbe9f6785	-0.31133667
96	0xbee6612d	-0.44996014
97	0xbe83ff6a	-0.25780803
98	0xbee3cbba	-0.4449137
99	0x3ecfcbaa	0.4058507
100	0x3e4de676	0.20107445
101	0x3e9398f0	0.2882762
102	0x3eba39a6	0.36372107
103	0xbd7933e1	-0.06084049
104	0x3e7a16d8	0.24422777
105	0x3e6e1744	0.23251063
106	0xbf098492	-0.5371791
107	0x3d110c99	0.035412405
108	0xbe802941	-0.25031474
109	0xbd7a72bb	-0.06114457
110	0xbf924f14	-1.1430383
111	0x3e832dfd	0.25621024
112	0x3f53a223	0.82669276
113	0x3efdd538	0.49576735
114	0x3f0500c4	0.51954293
115	0xbec4a160	-0.3840437
116	0x3e9d2ea0	0.30699635
117	0xbc09eb83	-0.008417967
118	0x3f22ec8a	0.6364218
119	0xbd56d151	-0.052445713
120	0x3f4e6681	0.8062516
121	0x3dc448bd	0.09584186
122	0x3ed254cd	0.41080323
123	0x3dd02f2c	0.10165247
124	0xbd4ebc2b	-0.05047242
125	0x3e4c52a9	0.19953407
126	0xbdf340fd	-0.1187763
127	0xbf402977	-0.7506327
128	0x3da9182b	0.08256563
129	0xbeb5cc89	-0.3550761
130	0xbf2e2ab0	-0.68033886
131	0x3f3bc385	0.73345214
132	0x3e995601	0.29948428
133	0xbf1fd50e	-0.6243447
134	0xbdf1c811	-0.11805738
135	0x3ec739cd	0.38911286
136	0x3f4ae5bc	0.79256797
137	0x3da8517e	0.082186684
138	0xbf72605b	-0.94678277
139	0x3f2683a7	0.65044636
140	0x3e7c3753	0.2463048
141	0xbe2ca6b1	-0.16860463
142	0x3edf8d62	0.43662554
143	0x3ebe2051	0.3713403
144	0x3e018eae	0.12652084
145	0x3f05207e	0.52002704
146	0xbf575de8	-0.84127665
147	0xbea7a4e7	-0.32742998
148	0x3f296beb	0.66180295
149	0xbdbb1c28	-0.0913623
150	0x3e507940	0.20358753
151	0x3e9ea364	0.30984032
152	0x3e72b344	0.23701197
153	0xbecd0d13	-0.40049037
154	0xbe3135b8	-0.17305648
155	0x3f1bedaa	0.6090952
156	0xbd36f7ba	-0.044669844
157	0xbf26507c	-0.6496656
158	0x3e9cbe26	0.30613822
159	0x3ef0d868	0.47040105
160	0xbede77d5	-0.434508
161	0xbf10b6cb	-0.5652892
162	0x3e0a1b0f	0.13486885
163	0x3d0f4857	0.034981098
164	0xbe8e7547	-0.2782385
165	0x3ea3c387	0.31985113
166	0xbef8add4	-0.4857012
167	0x3f021621	0.50815016
168	0x3f3bf66b	0.7342288
169	0xbe0545e4	-0.13014942
170	0xbf37cd2e	-0.71797454
171	0x3e913424	0.28360093
172	0x3e4d72b8	0.20063293
173	0xbf17ecc1	-0.5934563
174	0x3e5e6b1e	0.2172055
175	0x3da4c535	0.08045427
176	0xbd491eaf	-0.049101528
177	0xbea91bb4	-0.33028948
178	0xbeba30a2	-0.3636523
179	0x3ea2200d	0.31665078
180	0xbf2f69ed	-0.68521005
181	0x3ed43acb	0.41451105
182	0xbe58d8db	-0.21176474
183	0x3eee2ce3	0.4651862
184	0x3cc20adc	0.023686819
185	0xbe7a56f5	-0.24447234
186	0x3e50056e	0.20314571
187	0x3eafe83a	0.34356862
188	0x3c9d20d5	0.019180695
189	0x3ef10f98	0.4708221
190	0xbea48cbc	-0.32138622
191	0x3ee57f8b	0.4482387
192	0xbca03cf1	-0.01956031
193	0xbec6bbb0	-0.3881507
194	0xbdc6e7ae	-0.09712158
195	0xbbf9d1aa	-0.007623871
196	0xbe430559	-0.19045009
197	0x3e2c7327	0.16840802
198	0x3ee66209	0.4499667
199	0xbf11e851	-0.5699511
200	0x3e9fbe70	0.3119998
201	0xbe56867b	-0.20949738
202	0xbe2b1b96	-0.16709742
203	0x3e90953c	0.28238857
204	0xbed8098d	-0.42194787
205	0x3f15405e	0.5830134
206	0x3eef18c6	0.46698588
207	0xbeba222d	-0.363542
208	0x3ed7c395	0.42141405
209	0xbee36f26	-0.44420737
210	0x3df73471	0.12070549
211	0xbec83de6	-0.39109725
212	0xbf083010	-0.5319834
213	0x3e854de4	0.26035988
214	0x3edcc641	0.43120006
215	0x3d21d53f	0.039510008
216	0x3ccfded1	0.025374802
217	0xbf27de2e	-0.65573394
218	0xbe8f81c6	-0.28028697
219	0x3db2ccda	0.087304786
220	0xbc93f810	-0.018062621
221	0x3c9af897	0.018917365
222	0x3eb0a4d7	0.34500763
223	0x3ee7a0e9	0.45239952
224	0x3e0ab33a	0.13544932
225	0xbe6293c3	-0.22126679
226	0xbd03a9a7	-0.032144215
227	0x3dea1769	0.114302464
228	0x3db7729e	0.08957408
229	0xbf675b9d	-0.90374166
230	0x3f58c64c	0.84677577
231	0x3e6b6f85	0.2299176
232	0x3e1e3cb5	0.15452845
233	0x3cc11126	0.023567747
234	0x3ed2e2c0	0.41188622
235	0x3edd9d1c	0.43283927
236	0xbef98718	-0.4873588
237	0xbe01fcc3	-0.12694077
238	0xbe66d1b8	-0.22540939
239	0xbc114e97	-0.008868835
240	0x3f8eba72	1.1150649
241	0xbe4e323e	-0.20136353
242	0x3d819830	0.063278556
243	0xbe8dc11f	-0.27686402
244	0x3f0cdbc5	0.5502284
245	0xbf402007	-0.7504887
246	0xbeeb00df	-0.45899102
247	0xbec265d1	-0.37968305
248	0xbef6a689	-0.4817393
249	0xbe617378	-0.22016704
250	0x3e5b57b0	0.21420169
251	0x3fa159b7	1.2605504
252	0xbe7d8f30	-0.24761653
253	0x3d387cb4	0.0450408
254	0xbcdb5705	-0.026774893
255	0xbea5fb40	-0.3241825

bias f4 [32]
0	0xbd5aa678	-0.053381413
1	0xbe8f5365	-0.27993312
2	0xbe69ba4a	-0.2282497
3	0xbeca8371	-0.39553407
4	0xbefd3473	-0.49454078
5	0xbf18ada1	-0.59639937
6	0xbe5065d6	-0.20351347
7	0xbe3bb147	-0.18329345
8	0xbeb3aa81	-0.35091022
9	0xbf147687	-0.5799336
10	0xbd716f72	-0.058944173
11	0xbd59eb0f	-0.053202685
12	0xbd20a5b8	-0.03922054
13	0xbe9312df	-0.28725335
14	0xbf105114	-0.56373715
15	0x3df0d031	0.11758459
16	0xbf131dc2	-0.5746728
17	0xbd99b3eb	-0.0750502
18	0xbeaf5537	-0.342447
19	0xbd9a909a	-0.07547112
20	0xbdc298b5	-0.09501783
21	0xbd8e7974	-0.06956759
22	0xbdd8a36c	-0.10578045
23	0xbec3023e	-0.38087648
24	0xbd03f74a	-0.032218255
25	0xbdc8e1d0	-0.09808695
26	0xbec0db41	-0.37667277
27	0x3dd4c75e	0.10389589
28	0xbe03bb7d	-0.1286449
29	0xbeb0ae94	-0.34508193
30	0xbf3e1734	-0.74254155
31	0xbed0abe5	-0.40756145

weight f4 [8, 32]
0	0x3f6401e0	0.8906536
1	0xbe395a80	-0.1810093
2	0x3e81539b	0.25259098
3	0xbe52a81b	-0.2057194
4	0x3ebedfda	0.3728016
5	0xbd1cab3f	-0.03824925
6	0xbd9235cd	-0.07139168
7	0xbe211d58	-0.1573385
8	0xbe8cc192	-0.27491432
9	0x3e455254	0.19269687
10	0xbdd9fbba	-0.10643716
11	0xbd90c7b5	-0.07069341
12	0xbedd602f	-0.43237445
13	0x3e72c2bf	0.23707102
14	0xbcb95a9b	-0.022626212
15	0xbf04a15e	-0.51808727
16	0x3ebfec06	0.3748476
17	0xbe2cfa4b	-0.16892354
18	0xbef889c3	-0.48542604
19	0xbe1b4b74	-0.15165502
20	0x3e5ff03e	0.21868989
21	0xbe0cfb90	-0.13767838
22	0xbbef6d3f	-0.0073067243
23	0x3ea72f30	0.3265319
24	0x3d266aec	0.040629312
25	0xbd466d72	-0.04844422
26	0x3ec8bfd8	0.39208865
27	0xbe08ae66	-0.13347778
28	0xbe1d8af8	-0.15385044
29	0xbe98b58d	-0.29826012
30	0x3d9a76c2	0.075421825
31	0xbedb281d	-0.42804042
32	0x3ecbc152	0.3979593
33	0x3d099c7b	0.033596497
34	0x3e8548d4	0.26032126
35	0xbe8ab9a2	-0.27094752
36	0xbeef91b4	-0.4679085
37	0x3ea7c76e	0.3276934
38	0x3e53d140	0.20685291
39	0xbf3536c2	-0.7078668
40	0x3e1c066a	0.15236822
41	0xbc25fbd3	-0.01013084
42	0x3efd0daf	0.49424502
43	0xbd8ce862	-0.06880261
44	0xbcc8c57a	-0.024508227
45	0x3f3b77ca	0.7322966
46	0x3efbd38a	0.4918483
47	0x3d0d3bc1	0.034480814
48	0x3dab547e	0.08365725
49	0x3e4ee65e	0.20205066
50	0xbf06a70c	-0.52598643
51	0x3e0f1d33	0.13975982
52	0xbbddef96	-0.0067729456
53	0x3d378a68	0.04480973
54	0x3e6425c8	0.22280037
55	0x3d84e263	0.06488492
56	0xbe386297	-0.18006359
57	0xbd6ff1df	-0.058580276
58	0xbce6bce9	-0.028166251
59	0xbe1ed825	-0.1551214
60	0xbe9b461c	-0.30326927
61	0xbea1f00c	-0.31628454
62	0xbf7ce123	-0.9878103
63	0xbeaf0169	-0.34180763
64	0xbf38cacd	-0.7218445
65	0xbea7da4e	-0.3278374
66	0x3ec2d9ed	0.3805689
67	0x3eb9bfbb	0.3627909
68	0xbf2fe4e6	-0.68708646
69	0x3dbd4f0f	0.09243595
70	0xbf44a162	-0.7680875
71	0xbf0484b2	-0.51764977
72	0xbf0ac663	-0.54208964
73	0xbdcd0fe9	-0.100128
74	0x3e12a7b8	0.14321792
75	0x3dd966a6	0.10615282
76	0x3e28f710	0.16500497
77	0x3ebb84fb	0.36624894
78	0x3ecf3ec9	0.4047759
79	0x3f115c29	0.5678125
80	0xbc3d200e	-0.011543287
81	0x3e892f92	0.26794106
82	0x3e0a4784	0.13503844
83	0x3cac295c	0.021015815
84	0xbec65ead	-0.38744107
85	0x3c838973	0.016056752
86	0xbe9e73a3	-0.309476
87	0x3da2a0a3	0.07940795
88	0xbe0bb910	-0.13644814
89	0xbe6cfa95	-0.23142464
90	0x3caac3c0	0.020845294
91	0xbe8c89e2	-0.27448946
92	0x3d99eea2	0.07516219
93	0x3e53117b	0.20612137
94	0xbe94d531	-0.29068902
95	0x3f0607ce	0.5235566
96	0x3eacaafb	0.33724198
97	0xbea5e1c4	-0.32398808
98	0x3e18630f	0.14881538
99	0x3ecd6e0b	0.4012302
100	0x3e1b228e	0.151499
101	0x3dee633c	0.11640021
102	0x3e74e0cc	0.23913878
103	0x3c12c79e	0.008958725
104	0x3eb488f2	0.3526073
105	0xbd2e0038	-0.042480677
106	0xbe01bf8e	-0.12670729
107	0x3d644854	0.05573304
108	0x3e81eb01	0.25374606
109	0xbe33cf01	-0.17559434
110	0xbc90ac0d	-0.017660165
111	0xbbe393a0	-0.0069450885
112	0xbee733e2	-0.4515677
113	0x3f5de174	0.8667214
114	0x3ebc99db	0.36836132
115	0x3ea5f5f7	0.3241422
116	0xbccf27fa	-0.025287617
117	0x3f07e9fd	0.5309141
118	0xbdd57f06	-0.104246184
119	0x3e5555c6	0.20833501
120	0x3d4a9ee1	0.049467925
121	0x3dd8a209	0.10577781
122	0xbe771754	-0.24129993
123	0x3eb6eca2	0.35727412
124	0x3ef93949	0.48676518
125	0x3c89eed1	0.01683751
126	0x3dadf9d2	0.08494915
127	0x3f192013	0.59814566
128	0xbe074bad	-0.13212462
129	0xbdc8ccf8	-0.0980472
130	0x3d0c86fa	0.03430841
131	0xbf3f572a	-0.74742377
132	0x3ea96cf6	0.33090943
133	0xbe2a48cc	-0.16629332
134	0x3eb1cb48	0.34725404
135	0x3e7995f3	0.24373607
136	0xbe91fed2	-0.28514725
137	0x3eaa87af	0.33306643
138	0xbe5bbe32	-0.21459273
139	0x3e8383cf	0.256865
140	0xbe3f1eb4	-0.18664056
141	0xbf35ec6d	-0.7106388
142	0x3daba2d5	0.08380667
143	0xbde8b95e	-0.11363481
144	0x3ea9b570	0.33146238
145	0xbf76be50	-0.96384144
146	0xbea71de0	-0.3263998
147	0x3e6837e5	0.22677572
148	0x3e6fb683	0.23409466
149	0xbea69fbf	-0.32543752
150	0xbe355818	-0.17709386
151	0xbde07da6	-0.109614655
152	0x3e752cb7	0.23942839
153	0x3ebb6343	0.36599168
154	0x3ebc76cf	0.36809394
155	0xbd034676	-0.03204962
156	0x3bfd4674	0.007729346
157	0x3dfeca75	0.12440959
158	0xbe6b7251	-0.22992827
159	0xbefa6d9b	-0.48911747
160	0xbeba3e81	-0.36375812
161	0x3a5555bc	0.00081380806
162	0xbcac1727	-0.021007134
163	0xbef033e1	-0.4691458
164	0x3f023295	0.5085843
165	0x3ea09aef	0.31368205
166	0xbd77dda4	-0.060514107
167	0x3e8d8e7b	0.27647766
168	0x3eae11ff	0.33998105
169	0xbf067341	-0.52519614
170	0x3e2339e0	0.15940046
171	0xbf09de4a	-0.5385481
172	0xbf225750	-0.6341448
173	0xbd8b97d9	-0.06816072
174	0x3f333cc3	0.7001459
175	0xbf06b696	-0.52622354
176	0x3eafee26	0.3436138
177	0xbe7531f8	-0.23944843
178	0x3f028f3d	0.50999814
179	0xbd341aa1	-0.043970708
180	0x3c72ddcf	0.014823391
181	0xbe31c33e	-0.17359635
182	0xbee099ec	-0.43867433
183	0x3e4fd39c	0.20295566
184	0xbeeb387f	-0.4594154
185	0xbf0e65fe	-0.5562438
186	0xbe2153e8	-0.15754664
187	0xbed764d4	-0.42069113
188	0x3de9c52c	0.11414561
189	0x3e75679e	0.23965308
190	0xbd328b77	-0.043590035
191	0x3e1c9e90	0.15294862
192	0xbe91b314	-0.28456938
193	0x3edbafb9	0.42907503
194	0xbe58ad1e	-0.21159789
195	0xbe4742df	-0.19459103
196	0xbeb6c371	-0.35695985
197	0xbd5f31d6	-0.054490887
198	0xbed6bfde	-0.41943258
199	0xbdab1e71	-0.083554156
200	0x3eb787e7	0.35845873
201	0x3e607586	0.21919832
202	0x3d12438f	0.03570896
203	0xbe040b21	-0.1289487
204	0x3ddeaf40	0.1087327
205	0xbda15f70	-0.078795314
206	0xbf17315d	-0.590597
207	0xbe6a5d33	-0.22887115
208	0x3dec0f85	0.115263976
209	0xbdf8a828	-0.12141448
210	0xbe9aa009	-0.30200222
211	0x3e98730f	0.29775283
212	0x3e87c889	0.26520184
213	0xbe951587	-0.29117987
214	0x3ed5ec78	0.41781974
215	0x3dbbce87	0.09170251
216	0xbea3a55b	-0.31962094
217	0xbd6909c7	-0.05689409
218	0xbee5d12c	-0.44886148
219	0xbc7bbe07	-0.01536513
220	0xbf27101b	-0.6525895
221	0x3e5461de	0.20740458
222	0x3f60d231	0.87820727
223	0x3c7ef8f3	0.015562284
224	0x3eaa54b1	0.3326774
225	0x3ea21320	0.31655216
226	0xbeba2705	-0.36357895
227	0x3f6ecd60	0.9328213
228	0xbea09b39	-0.31368425
229	0xbe99c3cb	-0.3003219
230	0xbedd692b	-0.432443
231	0x3ec5915e	0.3858747
232	0xbebdc2a3	-0.3706256
233	0x3e6e9be4	0.23301655
234	0xbead87d2	-0.33892685
235	0xbd8ba1c0	-0.06817961
236	0xbdaaf228	-0.08346969
237	0xbbeda700	-0.007252574
238	0xbdf39da2	-0.118953004
239	0x3eab542d	0.3346266
240	0xbed14c26	-0.4087841
241	0x3e5d9f32	0.2164276
242	0x3e113606	0.14180765
243	0xbf158aa2	-0.5841466
244	0xbf260ad3	-0.64860266
245	0x3e450bc8	0.19242775
246	0xbe4e0b5f	-0.20121525
247	0xbeaed152	-0.34144074
248	0x3e7ebd92	0.24877003
249	0x3e1c086a	0.15237585
250	0x3eccce2c	0.40001047
251	0x3e4f85c2	0.20265868
252	0xbe067535	-0.13130648
253	0xbe8777b9	-0.2645853
254	0x3ed7bce2	0.42136294
255	0xbf117fa1	-0.5683537

bias f4 [8]
0	0xbb3e526b	-0.0029040824
1	0x3e15769f	0.14596032
2	0xbe93e061	-0.28882125
3	0x3d9bf62c	0.07615313
4	0xbdc0ccb3	-0.09414043
5	0xbef1bee2	-0.47215945
6	0xbcce527f	-0.025185822
7	0x3e95499d	0.29157725

weight f4 [8]
0	0x3faa4df8	1.3305044
1	0x3f60a15b	0.8774621
2	0x3f94283f	1.1574782
3	0x3fb60cbd	1.4222637
4	0x3f9713d3	1.1802925
5	0x3fb02340	1.3760757
6	0x3f6f8da6	0.93575513
7	0x3f88d7ec	1.0690894

bias f4 [8]
0	0xbd963b2a	-0.073355034
1	0x3dbcc353	0.09216943
2	0xbe7f2b57	-0.24918877
3	0x3da7f66f	0.082013
4	0x3c812e73	0.015769219
5	0xbdffb903	-0.1248646
6	0x3d34820b	0.04406933
7	0x3e4e128a	0.2012426

weight f4 [4, 4]
0	0xbec29f2f	-0.38012072
1	0x3f3047e3	0.6885969
2	0xbf325b05	-0.69670135
3	0x3eb1a1b6	0.34693688
4	0x3f26e861	0.6519833
5	0xbd0310f4	-0.03199859
6	0x3e101f40	0.14074421
7	0x3e248e6d	0.16069956
8	0xbe4bc937	-0.19900976
9	0xbe02c8da	-0.12771931
10	0x3dcad793	0.09904399
11	0x3bd4f529	0.006498952
12	0xbe1e64e0	-0.15468168
13	0xbea6e91d	-0.32599726
14	0x3f0604dc	0.52351165
15	0xbca11047	-0.019661082

bias f4 [4]
0	0x3f42f080	0.76148224
1	0xbddb1774	-0.10697833
2	0xbefa5b4e	-0.48897785
3	0x3ea89016	0.3292243

weight f4 [4, 4]
0	0x3eaa76de	0.33293813
1	0xbee5b34b	-0.44863352
2	0xbc7422a7	-0.01490084
3	0x3e177790	0.14791703
4	0x3e701c23	0.23448233
5	0x3e454d69	0.19267811
6	0xbdf9eae5	-0.12203006
7	0x3e9c2c3b	0.30502495
8	0xbe01d978	-0.12680614
9	0xbb3b5177	-0.0028582492
10	0x3e7fcc89	0.24980368
11	0x3ebfa883	0.37433252
12	0x3eb62567	0.3557541
13	0xbe27fb5d	-0.16404481
14	0x3ee6fa36	0.4511277
15	0x3e39e362	0.18153146

bias f4 [4]
0	0x3e4433a3	0.19160323
1	0xbf1b4818	-0.6065688
2	0x3f14886c	0.58020663
3	0xbe3bfa2f	-0.18357156

weight f4 [4, 4]
0	0xbe02a839	-0.12759484
1	0xbdb9c66d	-0.0907105
2	0x3e891387	0.2677271
3	0xbf4088bc	-0.7520864
4	0x3ee13931	0.43988946
5	0x3eb494df	0.3526983
6	0x3d23484b	0.039863866
7	0x3e55c0d6	0.20874342
8	0x3ec5812e	0.3857512
9	0xbf195d32	-0.5990783
10	0x3d963e7e	0.07336138
11	0x3e3fdd19	0.18736686
12	0xbef2ed83	-0.47446832
13	0x3ab342e4	0.0013676551
14	0x3e205874	0.15658742
15	0xbe0e5f87	-0.13903628

bias f4 [4]
0	0xbe7b7e82	-0.24559978
1	0xbc8e57bc	-0.01737582
2	0xbbb4cc22	-0.0055174986
3	0x3dc03939	0.09385914

weight f4 [4, 4]
0	0x3f73ffdc	0.95312285
1	0x3daaccc1	0.08339835
2	0xbe959b43	-0.29220018
3	0x3e4a4469	0.19752659
4	0xbee8cddf	-0.45469567
5	0xbf136795	-0.5757993
6	0xbe530246	-0.20606336
7	0x3eef02fe	0.4668197
8	0x3f2b3ca0	0.6688938
9	0x3e9cffdc	0.30663955
10	0xbe1de091	-0.15417697
11	0xbf141d17	-0.5785689
12	0x3e704b8a	0.23466316
13	0x3d362f97	0.04447898
14	0xbea4e60d	-0.32206765
15	0x3eb0a02d	0.34497204

bias f4 [4]
0	0x3e34ef81	0.17669488
1	0x3eb6223e	0.35573
2	0xbe001e29	-0.12511505
3	0x3e89dbe3	0.26925573

weight f4 [4, 4]
0	0xbf7e0d7b	-0.9923932
1	0xbda9bf80	-0.08288479
2	0xbec4ec6f	-0.38461635
3	0x3f1a19f1	0.60195833
4	0x3f5bd7c7	0.85876125
5	0x3f0b1ded	0.5434254
6	0x3fff44dc	1.9942889
7	0x3f715776	0.9427408
8	0x3f1ec901	0.6202546
9	0xbe473679	-0.19454373
10	0xbf9f9c26	-1.2469528
11	0xbf390b69	-0.72283036
12	0xbe940e95	-0.28917375
13	0xbf446a4e	-0.7672471
14	0x3f93ac17	1.1536893
15	0xbdf8565d	-0.121258475

bias f4 [4]
0	0x3e471b8d	0.19444104
1	0xbe27004a	-0.16308704
2	0x3eae1609	0.34001186
3	0x3dfa1a16	0.12212007

weight f4 [4, 4]
0	0xbf079c22	-0.52972615
1	0xbea068a9	-0.3132985
2	0x3f1bce0a	0.60861266
3	0x3f8b6f6e	1.0893381
4	0x3f14fa0c	0.5819404
5	0xc00df67e	-2.2181697
6	0x3ec6bf3c	0.38817775
7	0x3ecc17ca	0.398619
8	0xbdbe528c	-0.09293088
9	0x3f2713db	0.6526467
10	0x3f72c52b	0.94832104
11	0xbeac2d8a	-0.33628494
12	0x3ee4f0df	0.4471502
13	0xbe2da547	-0.1695758
14	0x3f8139f9	1.0095817
15	0xbf86e7cc	-1.0539489

bias f4 [4]
0	0x3e52d202	0.20587924
1	0x3eb150f0	0.34632063
2	0x3e307f6e	0.1723611
3	0x3e602b49	0.21891512

weight f4 [8]
0	0x3ffa1846	1.9538658
1	0x3ff26239	1.8936225
2	0x3ff0e396	1.8819454
3	0x3fbf6545	1.495278
4	0x3fd2a0ab	1.6455282
5	0x3fec3aa0	1.8455391
6	0x3fab8dcf	1.3402652
7	0x3fd9282a	1.6965382

bias f4 [8]
0	0xbc6478b5	-0.013944794
1	0xbe0ec770	-0.13943267
2	0xbcdb6f85	-0.026786575
3	0xbde7c532	-0.11316909
4	0xbe25cd7e	-0.1619167
5	0xbd2d0ec7	-0.04225042
6	0x3dfe08be	0.12404011
7	0xbd8a5c7f	-0.067559235

weight f4 [32, 8]
0	0x3f465b85	0.774834
1	0xbf1072ac	-0.56424975
2	0x3e41c557	0.18922935
3	0xbe26ba2c	-0.16281956
4	0xbebaec80	-0.3650856
5	0x3ea42f7a	0.32067472
6	0x3ec65762	0.38738543
7	0xbf9ad9b3	-1.2097687
8	0xbf63942d	-0.88897973
9	0x3f126389	0.5718313
10	0xbfbf24cd	-1.4933106
11	0x3efdcb61	0.49569228
12	0x3e8b7b0b	0.27242312
13	0xbee48327	-0.4463131
14	0x3d58bbac	0.052913353
15	0xbf3fae9b	-0.748758
16	0x3dc7f3bd	0.09763286
17	0xbf70d518	-0.94075155
18	0x3f4be592	0.7964717
19	0x3e8eb5d5	0.27873102
20	0xbea1164f	-0.31462333
21	0xbea5d487	-0.32388708
22	0xbdcf271d	-0.10114882
23	0x3f59f0a9	0.85132843
24	0xbf2c0841	-0.67200094
25	0x3fce7ab9	1.6131202
26	0xbc4916fb	-0.012273545
27	0xbf11fb00	-0.5702362
28	0xbf3712bb	-0.71512955
29	0x3ebf88c9	0.37409046
30	0xbcb24ec6	-0.021766078
31	0xbe8f80c8	-0.2802794
32	0xbec7e909	-0.3904498
33	0x3f49d97b	0.78847474
34	0x3f1bc835	0.60852367
35	0x3d95fe70	0.07323921
36	0x3e8b171d	0.27166072
37	0x3f18e312	0.5972148
38	0xbead3316	-0.33828038
39	0xbfa4b684	-1.2868199
40	0x3f165d8a	0.5873648
41	0x3e64f6c4	0.22359759
42	0xbeeae633	-0.45878753
43	0x3ec6e1fd	0.3884429
44	0x3eca8503	0.39554605
45	0xbfafb78c	-1.3727889
46	0x3ee10d5b	0.43955502
47	0xbef3b6f8	-0.47600532
48	0x3ea0ebd4	0.31429923
49	0x3ecc2fa1	0.39880088
50	0xbf636f4e	-0.8884171
51	0xbf0a2a34	-0.53970647
52	0x3e89d57a	0.26920682
53	0xbeb0ea6c	-0.3455385
54	0x3f0fd40f	0.5618295
55	0x3e792397	0.24329983
56	0x3e548f55	0.20757802
57	0xbe9cc1e5	-0.3061668
58	0xbcffb22c	-0.031212889
59	0x3f345769	0.7044588
60	0x3e029343	0.12751488
61	0xbf824fe5	-1.0180632
62	0x3e713c96	0.23558268
63	0xbf36a140	-0.713398
64	0xbf1fee45	-0.62472945
65	0xbf0edbb5	-0.55803996
66	0x3e945729	0.28972748
67	0xbd4b335a	-0.04960952
68	0xbf28fa6e	-0.66007125
69	0xbd2e5508	-0.04256156
70	0x3f4d48e9	0.8018938
71	0xbf499e16	-0.78756845
72	0xbfa3983e	-1.2780836
73	0x3d82f6b6	0.063947126
74	0x3d3e7f16	0.046507917
75	0x3e918e11	0.284287
76	0xbd0eac7b	-0.03483246
77	0x3ea34857	0.31891128
78	0xbe509b6d	-0.2037179
79	0x3ed388c4	0.4131528
80	0x3f928327	1.1446275
81	0x3900f392	0.00012297768
82	0xbecac16c	-0.39600694
83	0x3dc231d7	0.094821624
84	0x3e765fe8	0.24060023
85	0xbf037558	-0.5135093
86	0xbf079c0e	-0.52972496
87	0x3f4e1201	0.8049622
88	0xbdc03663	-0.093853734
89	0x3e205a35	0.15659411
90	0xbeb81592	-0.35953957
91	0x3dae76e1	0.08518768
92	0xbe24c437	-0.16090475
93	0xbf104e0e	-0.563691
94	0x3f4888d8	0.78333807
95	0x3e8e6ff0	0.27819777
96	0x3f6a6b55	0.91570026
97	0xbef9032a	-0.48635226
98	0xbef8b2da	-0.48573953
99	0xbe9049c1	-0.2818127
100	0xbf1f486f	-0.622199
101	0x3ecf18e5	0.4044868
102	0xbea69d6d	-0.3254198
103	0x3f60a28e	0.8774804
104	0xbf09d24b	-0.53836507
105	0x3ed5933c	0.41713893
106	0xbf9fde35	-1.2489687
107	0xbe5907ad	-0.21194334
108	0x3f404904	0.75111413
109	0x3f7a5a0b	0.97793645
110	0xbdd8f03f	-0.10592698
111	0x3ef5384e	0.4789452
112	0xbde8236f	-0.113348834
113	0xbd85f421	-0.065407045
114	0xbec380f2	-0.38184315
115	0xbf25caab	-0.6476237
116	0x3f8c444e	1.0958345
117	0xbed81a4f	-0.42207572
118	0x3f4cc901	0.7999421
119	0xbf220bac	-0.6329906
120	0xbf42a669	-0.7603517
121	0x3ec76baa	0.3894933
122	0x3fab9c19	1.3407012
123	0x3e3fe53d	0.18739791
124	0xbf0cad77	-0.54952186
125	0x3f2e83ae	0.6816968
126	0xbee16688	-0.44023538
127	0x3f125d12	0.57173264
128	0xbf833c2d	-1.0252739
129	0xbf281e6f	-0.6567144
130	0x3efd21b1	0.49439767
131	0xbec9b926	-0.3939907
132	0xbd9d4c28	-0.07680541
133	0x3f59010c	0.8476722
134	0x3e73f890	0.23825288
135	0x3f4750a7	0.7785744
136	0x3f0072b8	0.50175047
137	0xbee0d519	-0.4391258
138	0x3f710234	0.94143987
139	0xbeae2b3e	-0.34017366
140	0xbf7f5da2	-0.9975225
141	0xbec718e5	-0.3888618
142	0x3e36c8b1	0.17849995
143	0x3f142502	0.5786897
144	0x3f906272	1.1280043
145	0xbd1d68dd	-0.038430084
146	0x3edd394b	0.43207774
147	0x3db1fe32	0.08691062
148	0x3f28ca7a	0.65933955
149	0xbf63e229	-0.8901697
150	0xbedfd3aa	-0.43716174
151	0x3ec40ed9	0.38292578
152	0xbd4b3aa7	-0.049616482
153	0xbfb11e94	-1.3837457
154	0xbddf181c	-0.108932704
155	0x3f83ffd7	1.0312451
156	0xbed5ff1e	-0.417962
157	0xbe3ed6e0	-0.18636656
158	0xbe854b9d	-0.2603425
159	0x3e867d0c	0.26267278
160	0xbb73603f	-0.0037136225
161	0xbf3ac90e	-0.72963035
162	0x3f90de11	1.1317769
163	0xbd46809c	-0.048462495
164	0x3c51197e	0.0127624255
165	0xbf7d07e9	-0.98840195
166	0x3e7a6803	0.2445374
167	0x3f13fac9	0.5780454
168	0x3e9cc191	0.3061643
169	0xbe54808d	-0.20752163
170	0xbfb96af4	-1.4485765
171	0xbe9db41d	-0.30801478
172	0x3f4daa51	0.8033801
173	0x3ebe2b85	0.37142578
174	0x3f23d6d6	0.6399969
175	0xbf35fb6c	-0.71086764
176	0x3f55cf91	0.83519846
177	0xbed1ac53	-0.40951785
178	0xbed691cb	-0.41908106
179	0xbf1abb8d	-0.6044243
180	0xbe28f682	-0.16500285
181	0x3e9fa2b8	0.31178832
182	0x3e9c3c64	0.30514824
183	0xbf145d47	-0.5795483
184	0x3fbbdb61	1.4676324
185	0xbe079f08	-0.1324426
186	0xbecb00e1	-0.39649108
187	0xbf417691	-0.7557154
188	0xbeeada92	-0.4586988
189	0x3ed94ff7	0.4244382
190	0xbf98ab73	-1.1927322
191	0x3eae5651	0.3405023
192	0x3f944737	1.1584233
193	0xbdc6b60b	-0.09702691
194	0xbf387fa0	-0.7206974
195	0xbea3306d	-0.31872883
196	0x3dd6f1e7	0.10495358
197	0x3e44737f	0.19184683
198	0x3f13cdca	0.57735884
199	0xbcda9e15	-0.026686708
200	0x3e344d83	0.17607693
201	0xbe54ff46	-0.20800504
202	0x3f86499b	1.0491213
203	0xbf68bbb3	-0.90911406
204	0xbe486322	-0.19569066
205	0x3f1dda59	0.616613
206	0xbd77b979	-0.060479615
207	0xbf5f7254	-0.87283826
208	0x3f6ab291	0.9167872
209	0x3e7bcab2	0.24589041
210	0x3f391075	0.72290736
211	0xbf3944f2	-0.7237083
212	0xbeb95422	-0.36197
213	0xbf4bbc76	-0.79584444
214	0x3c23c238	0.009995036
215	0xbf2bde28	-0.6713586
216	0x3f067873	0.5252754
217	0xbe6b6e08	-0.22991192
218	0x3f838404	1.0274663
219	0xbfa5f40a	-1.29651
220	0xbebc2baf	-0.36752078
221	0x3e84e6e7	0.25957415
222	0xbe0b04bd	-0.13576026
223	0xbe457da3	-0.19286208
224	0xbf6ccb9c	-0.92498183
225	0x3edfa29f	0.43678758
226	0xbf1c9e9f	-0.61179537
227	0x3f54a9b2	0.83071434
228	0x3ee0e50d	0.43924752
229	0xbf237656	-0.6385244
230	0x3e3400e6	0.17578468
231	0xbea2856b	-0.31742415
232	0xbf111a2e	-0.5668057
233	0xbf8b9f23	-1.090794
234	0x3e646c27	0.22306882
235	0x3f44348e	0.7664269
236	0xbeb7e734	-0.3591858
237	0xbe9eb43d	-0.30996886
238	0xbe9b31fb	-0.3031157
239	0x3e3e529c	0.185862
240	0x3e8c8ed4	0.2745272
241	0x3f0f4f7a	0.55980647
242	0xbd8129ab	-0.06306776
243	0xbe305aaa	-0.17222086
244	0xbed024a1	-0.40652946
245	0xbf96d421	-1.1783487
246	0x3e708d27	0.23491345
247	0x3ee4af3b	0.4466494
248	0x3d7f9885	0.062401313
249	0xbf49d28c	-0.78836894
250	0x3d97174d	0.07377491
251	0x3f1d073d	0.6133917
252	0x3f617184	0.88063836
253	0xbf6d766d	-0.9275883
254	0xbe0d3ca2	-0.13792661
255	0xbe293d6a	-0.16527334

bias f4 [32]
0	0xbecc603a	-0.39917165
1	0x3f62f7ee	0.8865956
2	0xbce70e32	-0.028205011
3	0x3ddfdf02	0.10931207
4	0x3e4d534d	0.20051308
5	0xbe31e672	-0.17373064
6	0x3e25b84c	0.16183585
7	0x3d3ba311	0.04580981
8	0xbc874730	-0.016513437
9	0x3dfabb01	0.122426994
10	0x3f123770	0.5711584
11	0xbece3e77	-0.40282032
12	0xbe984444	-0.29739583
13	0xbd6b4bbe	-0.05744528
14	0xbe97049e	-0.2949571
15	0x3ee93639	0.4554918
16	0x3edb7ddb	0.42869458
17	0x3c9eec0a	0.019399662
18	0x3dd490fd	0.10379217
19	0x3e37e05c	0.1795668
20	0xbe8503c6	-0.2597944
21	0xbf3fa5d8	-0.7486243
22	0xbf5395da	-0.8265053
23	0xbe8f20ea	-0.279548
24	0x3c72a9fb	0.014811034
25	0xbe1bb0aa	-0.1520411
26	0x3ed77675	0.42082563
27	0x3eb89ee0	0.36058712
28	0x3ef20cc4	0.47275364
29	0x3e17f1d8	0.1483835
30	0x3dc09db2	0.09405078
31	0x3ed3c758	0.41363025

weight f4 [8, 32]
0	0x3f284d5c	0.6574304
1	0x3f2dd985	0.67910033
2	0xbf6bec86	-0.9215778
3	0xbeacfba3	-0.33785734
4	0xbee2c7ab	-0.4429296
5	0x3f61900a	0.8811041
6	0x3f44de33	0.7690155
7	0x3f0ecc23	0.5578024
8	0xbd263112	-0.04057414
9	0xbe3d0ce7	-0.18461953
10	0x3f5ce181	0.8628159
11	0x3ee930ca	0.45545036
12	0x3cee886d	0.029117787
13	0xbd71ef3e	-0.05906605
14	0x3e1e392b	0.15451495
15	0xbf924689	-1.1427776
16	0xbfc79e85	-1.5595251
17	0xbe7b891c	-0.24564022
18	0xbe239111	-0.15973307
19	0xbee10615	-0.43949953
20	0xbe9ee540	-0.3103428
21	0xbe9c6152	-0.30543
22	0x3cf0b913	0.029385125
23	0x3e627ba3	0.22117476
24	0xbd640459	-0.05566821
25	0xbe71da8b	-0.23618524
26	0x3f2775fc	0.65414405
27	0xbf48bdae	-0.7841443
28	0x3eccdccf	0.40012214
29	0xbec060da	-0.37573892
30	0x3f3cebff	0.737976
31	0x3d93ff25	0.07226399
32	0xbef7f732	-0.48430783
33	0x3e31c749	0.17361178
34	0x3db18dfe	0.08669661
35	0x3f78c670	0.9717779
36	0xbf48543b	-0.78253525
37	0x3e0f9096	0.14019999
38	0x3c098c33	0.0083952425
39	0xbed5bd1d	-0.41745844
40	0xbe63e653	-0.2225583
41	0x3e82ea32	0.25569302
42	0xbef00a0c	-0.46882665
43	0x3f56eb96	0.83953226
44	0x3efdcf33	0.49572143
45	0x3e7c8755	0.24661
46	0xbf352e2f	-0.70773596
47	0x3e9ce0ce	0.30640262
48	0xbef00543	-0.46879014
49	0xbc25798e	-0.010099782
50	0xbfb011ab	-1.3755392
51	0xbd7f85f3	-0.062383603
52	0xbe4ac308	-0.19800961
53	0xbe85c4da	-0.26126748
54	0xbd8709d6	-0.06593673
55	0x3f997483	1.1988682
56	0xbf4af65a	-0.7928215
57	0xbf58d747	-0.8470349
58	0x3daad9cd	0.083423235
59	0xbeb12ead	-0.34605923
60	0x3f098566	0.53719175
61	0x3edadc8c	0.4274639
62	0x3eec0ccf	0.46103522
63	0xbf0a3fad	-0.5400341
64	0xbd452bcc	-0.04813747
65	0xbed3b38e	-0.41347927
66	0x3de7bbfe	0.113151535
67	0x3f3613bc	0.7112386
68	0x3f9dc8d1	1.2326909
69	0xbf8cccfa	-1.1000054
70	0xbef9784e	-0.48724598
71	0xbed95ef2	-0.4245525
72	0x3f43fb18	0.76555014
73	0xbf3d88fb	-0.7403714
74	0x3f024c08	0.50897264
75	0xbe0f1af6	-0.13975129
76	0x3f798097	0.9746184
77	0xbddd2497	-0.107979946
78	0xbe9ce3d8	-0.3064258
79	0x3ee98471	0.45608857
80	0xbe19f835	-0.1503609
81	0x3f6c5d5e	0.9232997
82	0xbf17e526	-0.5933403
83	0x3eb86cc7	0.3602049
84	0xbef98366	-0.48733062
85	0xbf122272	-0.5708381
86	0xbea322e2	-0.3186255
87	0x3fb2bb64	1.3963437
88	0x3ea70b33	0.32625732
89	0x3e86a734	0.2629944
90	0x3ebcdb83	0.36886224
91	0x3f2a2fdf	0.66479295
92	0xbf67a923	-0.9049246
93	0xbe8d022c	-0.2754072
94	0xbe7aed72	-0.2450464
95	0xbf82cb11	-1.0218221
96	0x3cfe7638	0.03106223
97	0x3e3efb5c	0.18650573
98	0xbeb138d3	-0.34613666
99	0xbfc998b7	-1.574973
100	0xbee32d1a	-0.44370347
101	0xbe2584d9	-0.16163959
102	0x3ebc5ac5	0.36788002
103	0x3e484425	0.19557245
104	0xbd5b8410	-0.05359274
105	0xbea47ba9	-0.32125595
106	0x3e06c91b	0.13162653
107	0xbe44c4eb	-0.19215743
108	0x3f6273d3	0.88457984
109	0x3ee197f4	0.44061244
110	0x3ec61a19	0.38691786
111	0xbe725918	-0.23666799
112	0x3f3bdf79	0.7338787
113	0xbf274607	-0.6534123
114	0xbe2f2b2b	-0.17106311
115	0x3fb4c279	1.4121848
116	0xbf0fe8b5	-0.5621446
117	0x3f06ba32	0.5262786
118	0x3efdc49f	0.49564072
119	0x3f4f2abd	0.8092459
120	0x3f4c93e0	0.7991314
121	0x3f07eee8	0.53098917
122	0xbda714d3	-0.08158269
123	0x3cafec7b	0.021475067
124	0xbe067cd1	-0.13133551
125	0x3e834a8f	0.2564282
126	0xbf24ff56	-0.6445211
127	0x3ef9cafa	0.4878767
128	0x3f836576	1.0265338
129	0x3f91b984	1.138474
130	0xbf59753f	-0.8494453
131	0x3f0c32e5	0.5476516
132	0x3e98c7ab	0.29839835
133	0xbee0597c	-0.4381827
134	0x3e6ac6c8	0.22927392
135	0xbf4ee5d3	-0.80819434
136	0x3ef666d5	0.4812533
137	0x3eb40c37	0.3516557
138	0xbeafcd60	-0.34336376
139	0xb9a0fc01	-0.00030705336
140	0xbe0bf42a	-0.1366736
141	0x3f564cab	0.83710736
142	0x3f36bfa2	0.7138616
143	0x3e222d28	0.15837538
144	0x3e289a62	0.16465142
145	0xbeaa1ff3	-0.332275
146	0xbe845b80	-0.2585106
147	0xbf84ea79	-1.0384055
148	0xbf27d3ea	-0.6555773
149	0x3f5cac3e	0.8620032
150	0xbf189f0d	-0.5961769
151	0xbd8e15cc	-0.06937751
152	0x3e9974f0	0.2997203
153	0x3e02af16	0.12762102
154	0xbf6205d4	-0.88290143
155	0xbf1a022a	-0.6015955
156	0x3de3bbf4	0.111198336
157	0xbf5a3a44	-0.85245156
158	0xbe5b2be7	-0.21403466
159	0xbf4a428a	-0.7900778
160	0xbe1cd3c8	-0.15315163
161	0x3f1f5fae	0.6225537
162	0x3eecc319	0.46242598
163	0x3f105353	0.5637714
164	0xbf1398e0	-0.57655144
165	0xbea693dd	-0.32534686
166	0xbe8b4030	-0.2719741
167	0xbe705fba	-0.23474017
168	0xbef577dd	-0.4794301
169	0x3f399d93	0.72506064
170	0xbf4f713b	-0.8103215
171	0xbe6ef5ab	-0.23335902
172	0xbf53d9fb	-0.82754487
173	0x3edb8166	0.4287216
174	0x3e4643e2	0.19361833
175	0x3f2a53d4	0.6653416
176	0x3f816f10	1.0112019
177	0xbd5d2392	-0.053989
178	0xbebeed90	-0.3729062
179	0xbdd79b02	-0.10527612
180	0x3c810cec	0.015753232
181	0x3f4db02c	0.8034694
182	0x3cfae778	0.030627951
183	0xbfb2c015	-1.3964869
184	0xbecce313	-0.40016994
185	0xbf66dcce	-0.9018067
186	0xbeeeec5e	-0.4666471
187	0xbf1f9ded	-0.6235035
188	0x3eb4cb17	0.35311195
189	0x3efc264a	0.49247962
190	0x3e0ae0bf	0.13562296
191	0x3c5ccfe0	0.013477296
192	0xbeb352ee	-0.35024208
193	0xbdc1034f	-0.09424459
194	0x3f024013	0.5087902
195	0x3eb8b893	0.3607832
196	0xbdfd587e	-0.12370394
197	0xbeafb7d1	-0.34319928
198	0xbde6b95d	-0.11265824
199	0x3ddf671b	0.10908338
200	0x3f43c440	0.7647133
201	0xbe0abd23	-0.13548712
202	0x3d907f23	0.070554994
203	0x3e9ce20f	0.3064122
204	0x3ee5f100	0.4491043
205	0xbf79795d	-0.9745081
206	0xbefd381f	-0.4945688
207	0xbf898227	-1.0742844
208	0x3e7e2306	0.24818048
209	0x3e94c03a	0.29052907
210	0xbe5a0567	-0.21291123
211	0x3d52a429	0.051426087
212	0x3e16bf6f	0.14721464
213	0xbf72eab6	-0.9488939
214	0xbe66f425	-0.22554071
215	0x3f426567	0.7593598
216	0xbf0033b7	-0.5007891
217	0x3ec4c632	0.3843246
218	0x3d11733a	0.03551028
219	0x3e6fc8e5	0.23416479
220	0xbd3f6328	-0.046725422
221	0x3e1f1635	0.15535815
222	0x3d528272	0.051393934
223	0xbe0c36d3	-0.13692789
224	0x3e58c777	0.2116984
225	0xbf78d180	-0.9719467
226	0xbdc2d497	-0.095132045
227	0x3e3eb44f	0.1862347
228	0xbedf01a5	-0.43555942
229	0xbe9a5546	-0.30143183
230	0x3eca6e14	0.39537108
231	0xbf4e5292	-0.8059474
232	0xbf231506	-0.63703954
233	0x3d9612ea	0.07327826
234	0x3e315baf	0.17320131
235	0xbe16a1c4	-0.14710146
236	0x3e8a6c74	0.27035868
237	0x3f8144bc	1.0099101
238	0xbec1eaa5	-0.37874332
239	0x3e0ba95c	0.13638824
240	0x3effe38f	0.499783
241	0xbee2bf37	-0.4428651
242	0x3f80b25c	1.0054431
243	0xbeb86100	-0.36011505
244	0x3f5a3614	0.85238767
245	0x3eb6d3a7	0.35708353
246	0x3f468fd2	0.775632
247	0x3eab5fe5	0.334716
248	0x3f0c03a6	0.5469307
249	0x3cec85a2	0.028872315
250	0x3e844ec1	0.25841334
251	0x3ea793fc	0.3273009
252	0xbf16015d	-0.5859583
253	0xbe947de3	-0.29002294
254	0x3d5305bf	0.05151915
255	0x3eaf083b	0.34185967

bias f4 [8]
0	0x3dbe2d53	0.09285989
1	0x3ed17f45	0.4091741
2	0x3e71d0ca	0.23614803
3	0xbe310bd7	-0.17289673
4	0x3eaa6e04	0.3328706
5	0x3e528c1b	0.20561258
6	0x3c8fef8d	0.017570281
7	0xbdc5436f	-0.096320026

weight f4 [10, 8]
0	0x3e95d687	0.29265234
1	0x3b191d94	0.0023363577
2	0x3f42526c	0.75907016
3	0x3f14e91a	0.58168185
4	0x3f0207a7	0.50792927
5	0xbf9d0825	-1.226811
6	0xbef14062	-0.47119433
7	0x3f2bb8ff	0.67079157
8	0xbea11589	-0.31461743
9	0xbf97ab83	-1.1849216
10	0x3f1cf7ee	0.6131581
11	0xbe81276c	-0.2522539
12	0x3f039c7e	0.51410663
13	0xbf1fe4ef	-0.624587
14	0x3e20d6b9	0.1570691
15	0xbf0ee808	-0.558228
16	0xbf689f32	-0.9086791
17	0xbeb9e459	-0.36307028
18	0xbd36781a	-0.04454813
19	0x3e9cb6cb	0.3060821
20	0xbf1a1823	-0.6019308
21	0x3d8d10a5	0.0688794
22	0x3f02a92b	0.5103938
23	0x3f08d705	0.53453094
24	0x3e83f7cf	0.25775
25	0xbee00f7b	-0.4376181
26	0xbf04b0da	-0.51832354
27	0xb9cae762	-0.00038700836
28	0xbf829863	-1.0202755
29	0xbf131544	-0.57454324
30	0xbe505bbb	-0.20347492
31	0x3e3d2bf2	0.18473795
32	0xbeb6ab95	-0.35677782
33	0x3ef88434	0.48538363
34	0x3df29f1a	0.118467525
35	0xbefdcb39	-0.4956911
36	0x3f80805d	1.0039173
37	0x3f57c23b	0.8428075
38	0xbe13a079	-0.14416684
39	0xbf0f4c04	-0.55975366
40	0x3f932611	1.1495992
41	0xbf1a1cb5	-0.60200053
42	0xbf785431	-0.97003466
43	0x3db8d66f	0.09025275
44	0x3ed96467	0.42459413
45	0xbf129e65	-0.5727294
46	0xbf2f9e0b	-0.6860053
47	0x3cf0374b	0.02932324
48	0xbf3df48f	-0.7420129
49	0xbe2c9ab8	-0.16855896
50	0xbf09b3c9	-0.53789955
51	0x3eaf261d	0.34208766
52	0x3efa4d2a	0.48886997
53	0x3f8c0c92	1.0941336
54	0xbf290fca	-0.6603972
55	0x3f590c12	0.8478404
56	0xbdc89fc0	-0.09796095
57	0x3ef4e0f9	0.4782789
58	0x3f38c6b3	0.7217819
59	0xbf57d3a6	-0.84307325
60	0xbf0bac82	-0.545601
61	0xbd4bc2fc	-0.0497465
62	0x3e7d43d1	0.24732901
63	0xba6d4ef4	-0.00090525975
64	0x3f1bd7e8	0.6087632
65	0x3e91d23d	0.28480712
66	0xbe952259	-0.29127768
67	0x3f368898	0.71302176
68	0xbeb5ae72	-0.35484654
69	0x3ea150ad	0.31506863
70	0x3e108f43	0.1411715
71	0xbf8c593d	-1.0964733
72	0x3f760743	0.9610483
73	0x3f4622b6	0.77396715
74	0xbe8ef189	-0.27918652
75	0xbf3322d7	-0.69975036
76	0x3f172644	0.59042764
77	0x3d84692b	0.06465372
78	0x3ee37182	0.44422537
79	0xbe5b9719	-0.21444358

bias f4 [10]
0	0xbe027c7e	-0.12742803
1	0xbd718ab0	-0.058970153
2	0xbebf4397	-0.37356254
3	0xbed2f8f9	-0.41205576
4	0x3ead30d5	0.33826318
5	0xbe8d5994	-0.27607405
6	0x3e4e6129	0.20154251
7	0x3e164f00	0.14678574
8	0x3e9d2e55	0.3069941
9	0x3b1ceb34	0.0023943903
